notebook/net.pt (torch, 637447 bytes, 4 tensors)

1.weight f4 [200, 784]
0	0x3c1fde51	0.009757594
1	0x3b2d49cb	0.002644169
2	0xbacdd66a	-0.0015704159
3	0xbb7c2eab	-0.0038479965
4	0x3b8f3d88	0.004371349
5	0xbaba5c19	-0.0014218121
6	0xbbd8ff75	-0.0066222497
7	0xbad6766c	-0.0016362197
8	0xbb759081	-0.0037470164
9	0x3b3c287e	0.0028710659
10	0xbbe2ac2f	-0.0069174985
11	0x3c08fc4b	0.008360933
12	0x3c16dedf	0.00920841
13	0x3c17ad40	0.009257615
14	0xbb7f7b84	-0.0038983533
15	0x3c0b43c3	0.008500042
16	0xbc0b29e9	-0.008493879
17	0x3b3be607	0.0028671043
18	0x3ba05cdd	0.0048938827
19	0xbb05adff	-0.00203979
20	0x3c871c12	0.016492877
21	0xbb76a519	-0.0037635027
22	0x3bea11a9	0.0071432185
23	0xba838d3d	-0.0010036599
24	0x3c8ed626	0.017436098
25	0xbaf3633d	-0.0018569004
26	0x3b1968c3	0.002340839
27	0xbb3d82b9	-0.0028917028
28	0xbb9d9777	-0.004809316
29	0xbc40bb21	-0.011763365
30	0x3b942de7	0.0045220735
31	0x3b99f61d	0.0046985284
32	0xbbf14ef9	-0.0073641506
33	0xbb9d179e	-0.004794075
34	0x3c416842	0.011804642
35	0x3c2e365a	0.010633076
36	0xbc7be625	-0.015374695
37	0x3aee8194	0.0018196576
38	0x3ae3c17f	0.0017376392
39	0xbb70e1df	-0.0036755723
40	0xbca4392f	-0.020046799
41	0xbbb59dea	-0.0055425065
42	0xbc431ed5	-0.011909206
43	0xbc047388	-0.008084185
44	0xbc000e55	-0.007815917
45	0x3c5df79e	0.013547806
46	0xbc1141d7	-0.008865795
47	0x3c914a6d	0.017735684
48	0xbbbd0cf7	-0.005769368
49	0x3c26e2de	0.010185925
50	0x3b8df5f9	0.0043323007
51	0x3ca32900	0.019917011
52	0xbc03e290	-0.008049622
53	0x395332c5	0.00020141441
54	0x3bdad22b	0.006677886
55	0x39a9c7a0	0.00032382924
56	0x3caab76d	0.020839417
57	0x3b315c3e	0.0027063037
58	0xbb99f751	-0.004698672
59	0x3bbf3724	0.0058354307
60	0xbb2f2803	-0.002672673
61	0xbbe30902	-0.006928564
62	0xbb89977c	-0.0041989665
63	0xbc6583a3	-0.014008435
64	0xbbe975f0	-0.007124655
65	0x3c389fe4	0.01126859
66	0x3b841bdb	0.004031641
67	0xbb4f8554	-0.0031665163
68	0xbc5e98dc	-0.013586249
69	0x3bdf0c9a	0.006806922
70	0x3c3f5ee7	0.011680341
71	0x3c783b38	0.015150838
72	0xbcd8c93e	-0.026463147
73	0xbb24cfca	-0.0025148266
74	0xbb6466a0	-0.0034851208
75	0x3c297dbb	0.010344918
76	0xbb11efdc	-0.0022268211
77	0xbc06199e	-0.008184819
78	0xbc17c0cb	-0.009262274
79	0xbc506a1f	-0.012720614
80	0xbc648e20	-0.013949901
81	0x3c111020	0.008853942
82	0xbbcc9074	-0.006242806
83	0xbbe19f06	-0.006885412
84	0xbb856e1a	-0.004071963
85	0xbc359e3e	-0.011085091
86	0x3c2f4235	0.010696937
87	0xbae1855c	-0.0017205882
88	0xb81fa5db	-3.806302e-05
89	0xbc02b4cd	-0.007977677
90	0x3b2161e3	0.0024624995
91	0xbbbf8512	-0.0058447206
92	0xbca9b8c6	-0.02071799
93	0x3cb93620	0.022608817
94	0x3cc07442	0.023492936
95	0x3cdfce12	0.027319942
96	0xbbeeaa09	-0.0072834534
97	0xbc3fde76	-0.011710754
98	0x3c142aa8	0.009043373
99	0x3cb91701	0.022593977
100	0xbd3b4849	-0.045723233
101	0xbd1ea670	-0.038732946
102	0xbd586597	-0.05283126
103	0xbc0c89e6	-0.008577799
104	0x3bd19d03	0.006396891
105	0xbc076e7b	-0.008266087
106	0x3a99f9b8	0.0011747396
107	0x3b887c42	0.0041652033
108	0xbaec41f6	-0.0018025029
109	0x3bf3f880	0.007445395
110	0x3b64f38d	0.0034935207
111	0x3c3b9555	0.011449178
112	0xba41929c	-0.0007384212
113	0xbc0cf132	-0.008602427
114	0xbc81ea61	-0.01585883
115	0xba2c4dfb	-0.00065728993
116	0xbacdf7df	-0.001571413
117	0xbc1c18bb	-0.009527381
118	0xbc79bff6	-0.015243521
119	0x3bb2d9ae	0.0054580783
120	0x3c4cc040	0.012497008
121	0xbb2386a7	-0.0024952085
122	0x3ca5402e	0.020172205
123	0xbc47a1be	-0.012184558
124	0xbd04884f	-0.032356557
125	0xbd7b2fae	-0.061324768
126	0xbcb644dc	-0.022249632
127	0xbd448d6f	-0.047986444
128	0x3c84ad50	0.016195923
129	0x3b020e59	0.0019844978
130	0xbd69632f	-0.056979354
131	0xbd3adfce	-0.045623593
132	0x3c32ed66	0.010920858
133	0x3ce5e7a7	0.028064562
134	0x3d0b1dd3	0.03396399
135	0x3c85a229	0.016312676
136	0x3d155672	0.036459394
137	0x3c559961	0.013037057
138	0xbb5234f5	-0.0032075022
139	0x3b368c25	0.0027854529
140	0x3c5570de	0.013027398
141	0x3c8b46fb	0.01700162
142	0xba66b3c7	-0.00088005926
143	0xbca6629b	-0.02031069
144	0x3c0543d7	0.00813385
145	0xbcfcaaf4	-0.030843236
146	0xbd735194	-0.05940397
147	0xbd300cae	-0.042980842
148	0xbbf4978c	-0.007464355
149	0xbcabfffa	-0.020996083
150	0xbbb3da80	-0.0054886937
151	0xbd26b62e	-0.040701084
152	0xbc610a51	-0.01373537
153	0xbdc5e012	-0.09661879
154	0xbcad04ac	-0.021120392
155	0xbdcd0f64	-0.10012701
156	0xbbf16bad	-0.0073675723
157	0xbaac698b	-0.0013154013
158	0xbd04e560	-0.03244531
159	0xbc3ebbee	-0.011641486
160	0xbcdc96a9	-0.02692731
161	0x3d0c0041	0.03417993
162	0x3d268412	0.040653296
163	0x3d766676	0.060156308
164	0x3c58104e	0.013187481
165	0xbc27042e	-0.010193868
166	0x3c81ae5b	0.01583021
167	0xbbc0315b	-0.0058652586
168	0xbc9b9996	-0.018994134
169	0xba97fef9	-0.0011596374
170	0xbb872de8	-0.0041253455
171	0xbbc10f31	-0.0058917035
172	0xbcb4bd04	-0.022062786
173	0xbb569ba1	-0.003274657
174	0xbd50b73b	-0.050955992
175	0xbd65c6a1	-0.05609763
176	0x3b08f9c3	0.0020900823
177	0x3c2adf92	0.01042928
178	0xbd3dea37	-0.046365943
179	0xbd52bbcf	-0.05144864
180	0xbc14c906	-0.009081131
181	0xbdb4cdf5	-0.08828346
182	0xbaa8ff55	-0.0012893478
183	0xbc70d3f6	-0.014698973
184	0x3c165da2	0.009177597
185	0x3d3ffdc8	0.046872884
186	0xbca3ff6e	-0.02001926
187	0x3c0e2346	0.008675402
188	0xbd47ae77	-0.048750367
189	0xbd1c7440	-0.038196802
190	0x3ce5fa79	0.028073536
191	0x3d694229	0.05694786
192	0x3c5ba7bc	0.01340669
193	0x3c2a3889	0.010389456
194	0xbbe47710	-0.006972201
195	0x3c095bf1	0.008383737
196	0x3cb0aaed	0.021565879
197	0x3c5c82a1	0.013458879
198	0xbc41ea14	-0.011835594
199	0xbbf870d0	-0.0075818077
200	0xbcfcd164	-0.030861564
201	0x3cab2aae	0.020894375
202	0xbd5e24b5	-0.054234225
203	0xbd10fa11	-0.035394732
204	0x3d325abd	0.043543566
205	0xba846528	-0.0010100948
206	0x3a33fdcf	0.00068661285
207	0xbd24bf00	-0.040221214
208	0xbd5b2381	-0.053500656
209	0xbd354245	-0.044252653
210	0xbcff4e6a	-0.03116532
211	0x3ce2c3ad	0.027681196
212	0x3d8e3615	0.06943909
213	0x3c8640f6	0.016388398
214	0xbc5f9add	-0.013647762
215	0x3d3a4bda	0.045482494
216	0xbce27b8d	-0.027646804
217	0xbbb8fff7	-0.0056457478
218	0x3d3224a4	0.043491974
219	0x3d0cb1ed	0.03434937
220	0x3c1b1dea	0.009467581
221	0xbc26a41a	-0.010170961
222	0xbbe574c4	-0.007002445
223	0x3cbf81e4	0.023377366
224	0xbca5351c	-0.020166926
225	0xbbb23509	-0.005438451
226	0xbc4426dc	-0.011972155
227	0x3bab2238	0.005222585
228	0xbc89a437	-0.016801937
229	0x3d06bd6b	0.032895487
230	0x3d06d04f	0.032913502
231	0x3d31223f	0.04324555
232	0x3ce29eda	0.027663637
233	0x3d1ce6f0	0.038306177
234	0xbd2ccc16	-0.04218682
235	0xbdc5871f	-0.09644913
236	0xbdcde7ab	-0.10053953
237	0xbc402df8	-0.01172971
238	0xbce1bea8	-0.027556732
239	0xbbd123e4	-0.0063824523
240	0x3cc660cc	0.024216078
241	0xbd8e8b42	-0.06960155
242	0xbdaf213b	-0.0855126
243	0xbd045d59	-0.032315586
244	0xbbcf9c3c	-0.0063357633
245	0xbcfabf9a	-0.03060894
246	0xbcb0ee2e	-0.021597948
247	0xbc23249b	-0.009957458
248	0xbc3de45a	-0.011590088
249	0xbb57d308	-0.003293218
250	0xbb9e65a0	-0.004833892
251	0xb9325c3c	-0.00017009763
252	0x3b4178f0	0.0029521547
253	0x3b809238	0.0039236806
254	0xbcb3c9a8	-0.021946743
255	0x3c9501ae	0.018189277

1.bias f4 [200]
0	0x3cab2c08	0.02089502
1	0x3a1e8789	0.0006047418
2	0xbbdee75d	-0.006802483
3	0x3d1b9edb	0.037993293
4	0x3e72cc27	0.2371069
5	0x3c879a70	0.016553134
6	0x3dff82d3	0.124761246
7	0x3cf9f38a	0.030511636
8	0x3d84e197	0.0648834
9	0x3e4fb9a8	0.20285666
10	0x3d1cbe41	0.038267378
11	0x3d32cc4f	0.043651875
12	0xbd3a6c08	-0.045513183
13	0x3dea8f4e	0.114531144
14	0xbd2b6d88	-0.041852504
15	0x3c0da78d	0.008645904
16	0xbe46d0ee	-0.19415638
17	0x3d7a71c1	0.06114364
18	0x3cb9e758	0.022693321
19	0xbcc43dbd	-0.02395522
20	0xbd22b5c2	-0.03972412
21	0x3c3c1452	0.011479454
22	0x3c062bbd	0.008189139
23	0x3e538f7c	0.20660204
24	0x3da1602b	0.07879671
25	0x3a04cf66	0.0005066305
26	0x3bbbc25b	0.005729956
27	0x3bd3e99c	0.0064670574
28	0x3b1552cf	0.0022784953
29	0xbc74211c	-0.014900472
30	0x3e86381f	0.26214692
31	0xbd875b45	-0.06609205
32	0xbc6c7fe3	-0.014434787
33	0x3c1db3fd	0.009625432
34	0xbccf21b0	-0.025284618
35	0x3c44e77c	0.012018081
36	0x3e189122	0.14899114
37	0x3dff30ee	0.124605045
38	0x3b0708c2	0.0020604585
39	0x3ae6f212	0.001761975
40	0x3cef0b0d	0.029180074
41	0xbd832c63	-0.064049505
42	0x3d8a210e	0.06744586
43	0xbcb79610	-0.022410423
44	0x3df3722c	0.11887011
45	0xbd42f3fc	-0.047595963
46	0x3e04ed28	0.12981093
47	0xbb9e50e1	-0.004831419
48	0xbe4eae7d	-0.2018375
49	0x3e078fbc	0.13238424
50	0x3c75fa54	0.015013296
51	0x3d1f18eb	0.038842123
52	0x3d112c49	0.035442624
53	0xbe254240	-0.16138554
54	0x3d0b11ce	0.033952527
55	0xbbb97d1d	-0.0056606666
56	0xbd57242d	-0.052524734
57	0xbc8fb231	-0.017541023
58	0x3dc1e9bd	0.0946841
59	0x3e24d78e	0.16097853
60	0xbd081945	-0.033227224
61	0xbd1b3559	-0.037892673
62	0x3d848a66	0.0647171
63	0x3dcd1506	0.100137755
64	0x3e098b97	0.13432156
65	0xbe0ee48b	-0.1395437
66	0x3da2ecb7	0.07955306
67	0x3dc7078a	0.09718235
68	0xbd87fd92	-0.066401616
69	0x3d43966f	0.047750887
70	0xbe31dc54	-0.17369205
71	0xbdadf72a	-0.084944084
72	0x3e337a48	0.17527115
73	0xbdc3fe5d	-0.0957
74	0xbc9bf38c	-0.01903703
75	0x3d387135	0.045029838
76	0xbd5f2666	-0.05447998
77	0xbda2ec76	-0.079552576
78	0x3c8605ce	0.01636019
79	0x3d59ecd2	0.053204365
80	0x3e39934f	0.181226
81	0x3ca7292b	0.020405373
82	0xbdd82414	-0.10553756
83	0xbc431591	-0.011906997
84	0x3d0d8723	0.034552705
85	0xbc763213	-0.015026587
86	0xbdcceaf3	-0.100057505
87	0x3da6828d	0.08130369
88	0xbe38c2a6	-0.18043002
89	0x3e23a91d	0.1598248
90	0x3dd2a838	0.102859914
91	0x3da68d82	0.08132459
92	0xbc7f4538	-0.015580468
93	0xbd2a0e46	-0.04151752
94	0x3dab8b4a	0.08376177
95	0x3e0682a5	0.13135774
96	0x3d9040cd	0.0704361
97	0x3dffe60a	0.12495048
98	0x3db82505	0.08991436
99	0xbceb0936	-0.028690916
100	0x3d9235d4	0.07139173
101	0xbdc06827	-0.093948655
102	0x3d05df67	0.032683756
103	0x3d0237a7	0.031791355
104	0x3d6ec135	0.058289725
105	0xbd21e55e	-0.039525382
106	0xbd24b788	-0.04021409
107	0xbaa87b22	-0.0012854079
108	0xbded7ff0	-0.11596668
109	0x3db1a5d1	0.08674205
110	0xbd1c6297	-0.03817996
111	0x3e063c93	0.13109045
112	0x3d9e5869	0.07731707
113	0xbbb88d7b	-0.0056321
114	0x3d8101f1	0.062991984
115	0x3d083dd6	0.033262096
116	0xbd937c84	-0.07201484
117	0xbcb907a6	-0.022586655
118	0x3c450297	0.012024543
119	0xbb731f5d	-0.0037097551
120	0x3c3c943b	0.01150995
121	0x3cd20562	0.025637332
122	0xbccc6344	-0.024949677
123	0x3cbb0150	0.022827774
124	0x3d9e9a55	0.0774428
125	0x3dd2e24f	0.10297071
126	0x3df9e4e6	0.12201862
127	0xbd6cac5b	-0.05778156
128	0x3d652623	0.055944573
129	0x3cc355a2	0.023844544
130	0xbd64ed68	-0.05589047
131	0x3c84860b	0.016177198
132	0x3d27b316	0.040942274
133	0xbdacb47c	-0.08432862
134	0x3ca87eaa	0.02056821
135	0xbce9a56b	-0.02852126
136	0xbd40b556	-0.047047935
137	0xbd9fc155	-0.07800547
138	0x3de4d16b	0.11172756
139	0xbd472fdb	-0.048629623
140	0x3d8e17fd	0.06938169
141	0x3c8b38e5	0.016994903
142	0xbd844d18	-0.06460017
143	0xbd9bbf26	-0.07604818
144	0x3dd5d9bc	0.1044192
145	0xbdde4628	-0.10853225
146	0xbd50c21c	-0.050966367
147	0xbd5233fa	-0.0513191
148	0x3dfbf3a8	0.12302333
149	0xbe16a65d	-0.147119
150	0xbccaece8	-0.024771169
151	0xbc84e76e	-0.016223636
152	0xbe003f75	-0.12524207
153	0x3dc4a859	0.09602422
154	0x3e5d06cc	0.21584624
155	0xbd9d09e0	-0.07667899
156	0x3dec0c4a	0.115257815
157	0x3d45e81d	0.048317064
158	0xbd698585	-0.0570121
159	0xbe300dc5	-0.17192753
160	0x3c4cf03a	0.012508446
161	0xbe142f33	-0.1447113
162	0x3e02c9bc	0.12772268
163	0x3dc2f96a	0.09520228
164	0x3e2b3e82	0.16723064
165	0x3b48038b	0.003051969
166	0x3e044644	0.12917429
167	0x3dcffa93	0.10155215
168	0x3d8441d5	0.06457869
169	0x3b3e21f6	0.0029011942
170	0x3e78e943	0.24307732
171	0x3e0103c4	0.12599093
172	0x3ddc4f0d	0.10757265
173	0xbc4d0bae	-0.012514992
174	0xbd9fdee9	-0.078061886
175	0xbc9282d0	-0.017884642
176	0x3e321415	0.17390473
177	0x3d1f37b7	0.038871493
178	0x3df0613d	0.11737297
179	0x3c5234a5	0.012829934
180	0x3bc67d29	0.0060574007
181	0x3ca9c714	0.02072481
182	0xbdb1e4ce	-0.08686219
183	0x3dcb5008	0.09927374
184	0x3d42e59f	0.047582265
185	0xbab69580	-0.0013930053
186	0xbc8ea5e5	-0.017413089
187	0x3e965f36	0.29369515
188	0x3ab671c1	0.0013919399
189	0xbe06cc1e	-0.13163802
190	0x3bbd4053	0.0057754903
191	0xbc481232	-0.012211369
192	0x3d0f4b78	0.034984082
193	0x394b3325	0.00019378641
194	0x3c7b516d	0.015339238
195	0xbc86b954	-0.016445793
196	0x3d638399	0.055545423
197	0x3d80ac7b	0.06282898
198	0x3e83f738	0.2577455
199	0x3de3f735	0.111311354

3.weight f4 [10, 200]
0	0xbe77ea87	-0.24210559
1	0xbed3570a	-0.41277343
2	0x3def3416	0.116798565
3	0xbcec84aa	-0.028871853
4	0xbd977a7a	-0.073964074
5	0xbeb8d45a	-0.3609951
6	0xbd9ffa00	-0.078113556
7	0xbdd69e1e	-0.10479377
8	0xbf66bd05	-0.9013217
9	0x3ef200e2	0.472663
10	0x3eab5f8c	0.33471334
11	0xbea0292f	-0.3128142
12	0xbe28921e	-0.1646199
13	0x3e37856c	0.1792199
14	0x3e00d6eb	0.12581985
15	0xbee82f9d	-0.45348826
16	0xbed2d3f5	-0.41177335
17	0xbe82d0ec	-0.2555002
18	0xbe3dfeb0	-0.18554187
19	0x3cb26b31	0.021779628
20	0x3e182213	0.14856748
21	0xbdfaa9aa	-0.12239392
22	0xbcfacf68	-0.030616477
23	0xbda8a421	-0.0823443
24	0x3ea20efa	0.3165205
25	0x3c90e4db	0.017687252
26	0x3f2a1d1d	0.66450673
27	0xbdb9624c	-0.09051952
28	0xbe04bbc2	-0.12962249
29	0xbe00d59c	-0.12581486
30	0xbe93dfb3	-0.28881606
31	0xbbfb5cfd	-0.007670997
32	0x3bf22c25	0.0073905163
33	0xbbb94f1c	-0.0056551825
34	0xbe6311ff	-0.22174834
35	0xbe72f5d6	-0.23726591
36	0x3ea233fa	0.3168028
37	0xbcd85b5d	-0.026410753
38	0x3dfef798	0.124495685
39	0x3cb7e07a	0.022445906
40	0x3b98d0a4	0.004663544
41	0x3f242563	0.6411955
42	0x3ee5d56d	0.44889393
43	0x3dbe2152	0.09283699
44	0xbd02a65b	-0.03189693
45	0xbd17a5f0	-0.037023485
46	0x3dcf7bfb	0.10131069
47	0x3e063f1c	0.13110012
48	0xbed129b9	-0.40852144
49	0xbe332df4	-0.17497998
50	0xbe4b6775	-0.19863684
51	0xbdeeb6bf	-0.1165595
52	0x3dd80add	0.10548947
53	0x3e359883	0.1773396
54	0xbbe04b72	-0.0068449313
55	0x3ebcb37a	0.3685568
56	0x3e07413f	0.13208483
57	0xbd8912d4	-0.06693044
58	0x3e04ad96	0.12956843
59	0xbe3251d6	-0.1741403
60	0x3cac037d	0.020997757
61	0xbeb29281	-0.348774
62	0x3c30c171	0.0107883075
63	0xbb9417bd	-0.0045194314
64	0x3e403d48	0.18773377
65	0x3dbef6fa	0.09324451
66	0xbf63f196	-0.89040506
67	0x3ea58475	0.3232762
68	0xbc39fc61	-0.011351676
69	0xbdc0b06a	-0.09408648
70	0x3e899ad3	0.26875934
71	0x3de88a6d	0.113545276
72	0x3e792ed7	0.24334274
73	0x3ebed486	0.37271518
74	0x3ea13e6c	0.31492937
75	0xbf0737a3	-0.5281927
76	0x3b1f6747	0.0024323033
77	0x3eca97da	0.3956898
78	0x3e651184	0.22369963
79	0x3e193698	0.14962232
80	0xbcf37ddf	-0.029723106
81	0xbe322164	-0.1739555
82	0x3f170c82	0.5900346
83	0x3d0fde73	0.035124253
84	0xbda3c19f	-0.07995915
85	0x3e0cc2b3	0.13746147
86	0x3e7fc995	0.24979241
87	0xbea865c9	-0.32890156
88	0x3dd4784d	0.10374508
89	0x3eb4210f	0.35181472
90	0xbd91445d	-0.070931174
91	0xbd9dea2a	-0.07710679
92	0xbe61f24c	-0.22065085
93	0x3d8ed00d	0.06973276
94	0x3a7ae069	0.0009570183
95	0xbe863869	-0.26214913
96	0x3e991dbc	0.29905498
97	0xbd9e68f1	-0.0773486
98	0xbd569a0a	-0.052392997
99	0xbd4eb334	-0.05046387
100	0x3dc1dd84	0.09466079
101	0xbe76c62a	-0.24099031
102	0xbf3dd92d	-0.7415951
103	0x3b9ff9ca	0.004882072
104	0x3d5308df	0.051522132
105	0x3ea0dee8	0.31420064
106	0xbe8b2a08	-0.27180505
107	0xbd9127ce	-0.0708767
108	0xbd298abf	-0.041392084
109	0xbe80815d	-0.25098696
110	0xbd2f67cd	-0.0428236
111	0xbd0549d5	-0.032541115
112	0xbef831f8	-0.48475623
113	0xbecb2373	-0.39675483
114	0xbe8a82da	-0.27052957
115	0xbe1acc0b	-0.15116899
116	0xbea3a284	-0.31959927
117	0x3e84ea54	0.25960028
118	0xbe7b1051	-0.24517943
119	0xbdf596c6	-0.119916484
120	0xb9fc5cca	-0.0004813432
121	0x3e7937c5	0.2433768
122	0xbb5dfbdb	-0.0033872041
123	0x3e9ede42	0.31028944
124	0xbea4109c	-0.32043922
125	0xbf0dcc3a	-0.5538975
126	0xbe27684f	-0.16348384
127	0x3e03f755	0.12887318
128	0xbe732c90	-0.23747468
129	0x3df1a984	0.11799911
130	0x3e46d172	0.19415835
131	0xbe19c222	-0.15015462
132	0xbe062458	-0.13099802
133	0xbe3efdff	-0.1865158
134	0x3d6645bf	0.05621886
135	0xbc1f6cba	-0.009730512
136	0xbe6c72e9	-0.2309071
137	0xbec41d90	-0.38303804
138	0x3db22873	0.08699121
139	0x3da79b52	0.08183922
140	0xbe3320ae	-0.17492935
141	0xbd7b96ac	-0.06142299
142	0xbef78aad	-0.4834799
143	0x3e474fb3	0.19463997
144	0x3ef50a6b	0.4785951
145	0x3f12635c	0.5718286
146	0x3e47a6e8	0.19497263
147	0xbed257d0	-0.4108262
148	0x3b78dca9	0.003797332
149	0xbe1d02ad	-0.15333052
150	0xbc9b7770	-0.01897785
151	0x3d84208d	0.06451521
152	0xbf5d389e	-0.86414516
153	0x3f0de1c7	0.55422634
154	0xbe850d64	-0.2598678
155	0x3e3fa659	0.187158
156	0xbef6ae20	-0.48179722
157	0xbf1a0b50	-0.6017351
158	0x3f194635	0.5987275
159	0xbe8735f4	-0.2640835
160	0x3e8b2643	0.2717763
161	0x3c0d5512	0.008626239
162	0x3d9fdcb5	0.078057684
163	0xbe611789	-0.21981634
164	0x3ef8fd7f	0.48630902
165	0xbd4b1db2	-0.049588867
166	0x3e482612	0.19545773
167	0xbd37e787	-0.044898536
168	0xbed8b708	-0.42327142
169	0xbd85800b	-0.06518563
170	0x3d5ba6fd	0.05362605
171	0xbd871ca7	-0.06597262
172	0xbd269438	-0.040668696
173	0xbc13e43e	-0.009026585
174	0x3ebb8384	0.36623776
175	0xbc06fd12	-0.008239048
176	0x3d7db7c1	0.06194282
177	0xbec98dac	-0.393659
178	0xbeacdf9d	-0.33764353
179	0xbe5236c0	-0.20528698
180	0xbc02f4d3	-0.007992941
181	0xbd50189f	-0.05080473
182	0xbe6eb506	-0.23311242
183	0x3e711bff	0.23545836
184	0x3e69030d	0.2275507
185	0x3a074e7c	0.00051615364
186	0xb9e8ba04	-0.0004438908
187	0xbea6cefe	-0.32579798
188	0x3ea3f83a	0.3202532
189	0x3ef3f9f9	0.47651652
190	0x3e00da63	0.12583308
191	0xbef3a242	-0.4758473
192	0x3f338873	0.7013008
193	0xbcbffa3b	-0.023434749
194	0x3ebee736	0.37285775
195	0xba90b3fc	-0.0011039968
196	0xbeb8cd7f	-0.3609428
197	0x3d47dc80	0.04879427
198	0xbdb6734e	-0.089087114
199	0xbe8a6439	-0.2702959
200	0xbe164cf2	-0.1467779
201	0x3eae8ae3	0.34090337
202	0xbe832a15	-0.25618044
203	0x3ea78e8c	0.32725942
204	0x3e9adc4b	0.30246195
205	0x3e669fe9	0.22521938
206	0x3bddf95c	0.0067741107
207	0x3e671add	0.22568841
208	0xbd237123	-0.039902817
209	0x3cf0ec59	0.029409574
210	0xbea56809	-0.32305935
211	0xbb0e0a91	-0.0021673779
212	0xbe036c51	-0.12834288
213	0xbef04ff0	-0.46935987
214	0xbd295efd	-0.041350354
215	0xbd2d8ace	-0.042368703
216	0x3eb041fc	0.34425342
217	0x3e59656d	0.21230097
218	0xbd870e52	-0.06594528
219	0x3c16ef6c	0.009212356
220	0x3d8c9e91	0.06866182
221	0x3d843f08	0.06457335
222	0x3cddbe9c	0.027068429
223	0x3bcd2ff1	0.0062618186
224	0x3ca354ea	0.019937951
225	0xbd89150c	-0.066934675
226	0xbeec114d	-0.4610695
227	0x3ec00b53	0.3750864
228	0xbd0fd6da	-0.035117008
229	0x3d69c1bc	0.057069525
230	0x3c94c0da	0.018158365
231	0x3e5beccf	0.21477054
232	0x3e1ed1ea	0.15509763
233	0x3dab1250	0.08353102
234	0x3eb901b3	0.3613411
235	0x3e0f731b	0.14008753
236	0xba9d6b49	-0.0012010123
237	0x3d7648ef	0.06012815
238	0x3e53d28b	0.20685785
239	0x3e3e0a9e	0.18558738
240	0xbe82635e	-0.25466436
241	0xbd75c8e4	-0.060006037
242	0xbec604eb	-0.38675627
243	0xbdcf1cac	-0.101128906
244	0x3f16ec6f	0.5895452
245	0x3dfee2ea	0.12445624
246	0xbe5e6518	-0.21718252
247	0x3dedf2e9	0.11618597
248	0xbc8abfdf	-0.016937194
249	0xbd5ab70b	-0.05339722
250	0x3dc38f32	0.09548797
251	0x3e02ca80	0.1277256
252	0xbdb93586	-0.09043412
253	0x3f32fb46	0.6991466
254	0x3b91a090	0.0044441894
255	0xbcdc7094	-0.02690915

3.bias f4 [10]
0	0xbec5ac90	-0.38608217
1	0x3e67b880	0.22628975
2	0xbde03e13	-0.1094934
3	0xbe88cab3	-0.26717147
4	0x3e58e8b8	0.21182525
5	0x3e785385	0.2425061
6	0xbd7303b2	-0.059329696
7	0xbe2b913e	-0.16754624
8	0x3e7c9f46	0.24670133
9	0x3d44ef8b	0.04808001
